rawdata/run2pponnx/rundir/model_1.onnx (onnx, 89709 bytes, 10 tensors)

sequential/normalization/sub/y:0 f4 [1, 12]
000000 10 4d c4 44 99 33 c5 44 8c d5 c6 44 3b c2 c8 44
       1570.4082 1577.6124 1590.6733 1606.0697
000010 9f 76 cb 44 9a a6 cf 44 4f ef d1 44 39 92 d0 44
       1627.7069 1661.2063 1679.4784 1668.5695
000020 21 fa cd 44 61 c8 cb 44 a9 69 ca 44 22 a8 c9 44
       1647.8165 1630.2618 1619.3019 1613.2542

sequential/dense_3/MatMul/ReadVariableOp:0 f4 [100, 3]
000000 05 53 5c be 8f bc 83 bd 4b 75 47 be 7c 14 bc bc
       -0.21516044 -0.06432449 -0.19478337 -0.022958986
000010 e1 ef d6 3e c1 15 e3 bb 91 69 db 3c 6d f4 93 be
       0.41979888 -0.0069300835 0.026783736 -0.2889742
000020 bc 3b 05 bd ec c1 57 3e c4 53 57 bc fe 4f 09 ba
       -0.03252767 0.21070069 -0.01314253 -0.0005238055
000030 5d 9d a5 3c d8 48 06 bd 51 67 81 3e 25 f6 0a 3e
       0.020216638 -0.032784313 0.25274137 0.13570459
000040 6d 06 ee ba 78 ee 00 3c 75 85 1e 3d 83 5f 5a be
       -0.0018159874 0.007869355 0.038701493 -0.21325497
000050 94 40 83 bc 89 ef e0 ba 5c 2a 3d 3d 64 95 6b 3e
       -0.016022004 -0.0017161231 0.046182975 0.23006207
000060 fa 5a 01 bd 45 4c fb bd 61 d7 42 3e a6 23 80 bd
       -0.031580903 -0.12270407 0.19027473 -0.062567994
000070 92 1c 59 3f c7 07 9b 3c d2 ec ca 3c 25 ed 44 3e
       0.8480922 0.018924607 0.024771128 0.19231088
000080 d1 40 77 3c 5b 79 6c bc b4 9a d3 3e 63 a1 2a bc
       0.015091137 -0.01443323 0.41328967 -0.010414454
000090 db e6 04 3c fe 46 0d 3c 7d 0e 6a 3e 93 d2 25 3e
       0.008111681 0.008622883 0.2285709 0.16193609
0000a0 48 53 a8 3b 25 08 22 bc bf 3f 01 bc 50 7b 73 3d
       0.005136881 -0.009889637 -0.007888733 0.05944377
0000b0 e3 7a a3 bd cf 2c 14 bb 4b c9 18 3f 47 a3 b5 bc
       -0.07982423 -0.0022609716 0.5968215 -0.022172583
0000c0 0c e6 07 3f e2 64 8f be 93 30 df bc 7f 4d bf 3c
       0.530854 -0.28006655 -0.027244842 0.023352383
0000d0 1e 2b a3 3a b9 22 45 3e 4a 7e 1d 3e a6 74 99 bb
       0.0012448763 0.19251527 0.15380207 -0.004683095
0000e0 2d 1e 13 bb ae 58 29 3e 71 69 78 bc 1e 58 9d 3a
       -0.0022448406 0.16537735 -0.015161858 0.001200441
0000f0 58 9b 0d 3d 3a 1d ae bd 2d 4d 58 3e dc 17 56 be
       0.034571975 -0.08501668 0.2112319 -0.20907539
000100 ce 88 70 bd 90 55 73 3d 32 7d 4f 3c 3d ab 97 bb
       -0.058724217 0.05940777 0.012664126 -0.0046285675
000110 b6 e9 dd be c6 ae f8 bc 27 48 93 be 94 37 e1 bc
       -0.4334237 -0.030356776 -0.28765985 -0.027492322
000120 ee e3 b2 be 43 0b b5 bd af 1e 0d 3d 46 e7 bd 3c
       -0.34939522 -0.088400386 0.03445309 0.023181569
000130 f3 cf 00 3d 2d 56 54 3e e5 78 57 3e 43 53 b0 bc
       0.031448316 0.20735998 0.21042211 -0.021524077
000140 4d 2a 36 bb 0c 7b 0c 3e 30 6d 33 3c 60 ab 34 bb
       -0.002779621 0.13718814 0.010951325 -0.0027567968
000150 a6 ee 1d 3e c5 9d 7e 39 5f 37 2b ba d3 c9 11 3e
       0.15423068 0.00024282101 -0.0006531383 0.14237146
000160 0b ec 1c 3c 70 fe 84 bb f8 e0 8a bd 72 c1 86 3f
       0.009577761 -0.0040586516 -0.06781191 1.0527785
000170 a1 38 29 3d d3 03 aa 3c f9 70 7a be a3 c9 3e 3b
       0.04131377 0.020753777 -0.24457158 0.0029111884
000180 17 f6 e6 3b 4f 07 bc be a4 73 e0 bc ac 01 87 3c
       0.007048379 -0.36724326 -0.027398892 0.01648029
000190 19 fe f6 be 9f 79 1b bc d6 5a aa 3c 37 8b d8 be
       -0.48240736 -0.009489446 0.020795267 -0.42293712
0001a0 de 50 fa bc 14 03 0c 3e cc 84 05 3c 84 ac 2b bb
       -0.030556139 0.13673049 0.008149337 -0.0026195357
0001b0 af 44 f9 3d 55 24 13 3b 8f c3 75 3b 1b d7 7b bd
       0.121713035 0.0022452076 0.0037500595 -0.061484437
0001c0 e8 5e d4 3e dd 11 11 bc 3d ec b9 3c ef c8 6a 3d
       0.41478658 -0.008854357 0.022695655 0.05732053
0001d0 ba 53 c4 be 5e 65 29 3e ce f9 32 be 48 7e fd 3d
       -0.38345128 0.16542575 -0.17478105 0.12377602
0001e0 2c 08 1c 3e 9f 42 71 3b 0f 4d 4e bb 0d 51 a2 3b
       0.15237492 0.003681339 -0.0031479036 0.0049535097
0001f0 3b df de be 7a 68 5d bc 4c b2 2e 3e 46 9b d2 3c
       -0.43529686 -0.013513679 0.17060202 0.025708806
000200 73 87 e6 3a 2d 15 19 3e 6f 68 53 bb b4 92 01 bc
       0.0017587974 0.14949484 -0.0032258292 -0.007908512
000210 72 2b 8a 3c 45 84 01 3d 8d 1d 77 3e 26 49 c3 bb
       0.01686642 0.031620283 0.24132366 -0.0059596477
000220 2b 09 5b bb 19 c6 2b 3e 30 fe 09 bd 47 12 3e 3f
       -0.0033422213 0.16774787 -0.033689678 0.7424664
000230 1c 66 f0 3b e2 9f 32 3e 79 56 78 3d 97 36 5d ba
       0.007336391 0.17443803 0.06062934 -0.00084386155
000240 d7 52 6a bb 06 03 30 3f 53 e5 54 bc ef 08 4b 3c
       -0.0035754943 0.68754613 -0.012994128 0.012392267
000250 ed 4e 98 3e 5c 91 c0 bc 58 c6 b7 3a 44 ac f0 3e
       0.29747716 -0.023506813 0.0014020903 0.47006428
000260 9e 56 7f bc 72 17 62 be f6 5a fc bc a9 6a 6f 3d
       -0.015584616 -0.22079256 -0.030805092 0.05845133
000270 ec 5a f2 3b c2 73 0b bc cb b6 56 3e 5d d5 fd 3b
       0.0073960926 -0.0085114855 0.20968167 0.007746382
000280 d2 e3 41 bb 3a ff 72 3e f3 80 15 3e 8f 2a bf 3a
       -0.0029585254 0.23730174 0.14599971 0.0014584827
000290 b9 49 dd 3b 1f 8a ee bb 6e dc 01 3f 6f 20 cb bc
       0.006753173 -0.007279649 0.50726974 -0.024795739
0002a0 94 3d 9f 3a f8 ac d5 3e b2 6d e0 bc 0d 13 11 3e
       0.0012149089 0.41733527 -0.027396057 0.14167424
0002b0 36 f7 00 bc b7 f0 15 3a f9 b6 d4 ba dd 62 97 bc
       -0.00787144 0.0005719768 -0.0016228847 -0.018479759
0002c0 e1 0c 51 3e c7 6a bd be b3 95 3e 3c a3 32 0a 3d
       0.20415069 -0.36995527 0.011632371 0.033739697
0002d0 28 a5 2c bc 9f 23 21 3f c5 38 50 bc 8f 35 7c bc
       -0.010537423 0.6294498 -0.012708847 -0.015393629
0002e0 95 d2 9f be 8a 9a 9d bc f8 e3 2c 3c 46 c1 d3 be
       -0.3121535 -0.019238729 0.010552399 -0.41358393
0002f0 29 1d ff bb 16 f9 f8 3c 00 91 7c be d1 52 68 bc
       -0.0077854586 0.03039221 -0.24664688 -0.014179901
000300 1e 1a 26 3e 3b b6 17 bc 24 e9 06 bc a8 79 30 bc
       0.162209 -0.009259756 -0.008234296 -0.010771193
000310 68 0d 2c 3f 8d a1 b4 bb 72 1a be 3c 30 27 a5 3e
       0.67207956 -0.0055124224 0.02320597 0.3225646
000320 4a 54 92 bc 95 a6 2f bd b3 dd 49 3f e7 26 a4 3c
       -0.017862458 -0.042883474 0.7885391 0.020038081
000330 1b 11 8e bd 1d b9 28 be c4 12 69 3e 14 36 02 3d
       -0.06936856 -0.16476865 0.22761065 0.031789854
000340 22 3f 8f be 92 d0 01 bd a1 01 23 be 49 5d 56 3d
       -0.27977854 -0.03169305 -0.1591859 0.052335057
000350 06 fa 99 3d 6d c6 e2 3b 1b 40 10 3d 8a f5 5b 3e
       0.07518391 0.006920627 0.035217386 0.21480384
000360 42 de 48 bb e7 a0 c2 bd 3c 40 44 3e 24 6f c2 bd
       -0.0030650054 -0.09503346 0.19165128 -0.09493855
000370 88 f3 82 bd c6 68 8c 3e b1 9f d4 bc fd e8 2b 3f
       -0.06394106 0.27423686 -0.025955053 0.67152387
000380 a6 ba 47 bc 82 c9 bd 3c 03 dc 9e 3e 6f 43 1d bd
       -0.012190497 0.023167375 0.3102723 -0.038394388
000390 b6 93 e7 3a 3a 0d c4 bc 40 f1 7a 3e af f6 37 bb
       0.0017667923 -0.023932088 0.24506092 -0.002807062
0003a0 e6 58 30 3b 61 5d 50 3e 56 18 98 3c 53 f1 89 3d
       0.0026908456 0.20348121 0.018566292 0.06735482
0003b0 06 8c 63 3e a5 9a 07 3c 56 c3 a0 be 56 a9 b9 bc
       0.22221383 0.008276616 -0.3139903 -0.022663753
0003c0 27 55 22 3e 3f 88 88 3c e4 6c 8a bb 27 63 03 3d
       0.15852796 0.01666653 -0.0042244066 0.03207698
0003d0 8a 6f ff be 54 40 17 bd 7f 74 7f 3c d0 1c 97 be
       -0.49889785 -0.036926582 0.01559174 -0.2951417
0003e0 da 16 0a bd 40 c0 d6 3b 13 ee e9 3b 23 7d 5f 3e
       -0.0337132 0.0065536797 0.0071389764 0.2182508
0003f0 bf 7d 01 3e ec 35 bd bd 30 34 d6 bb 6f 4f 61 3c
       0.12645625 -0.092388004 -0.006536983 0.013751849

sequential/dense_3/BiasAdd/ReadVariableOp:0 f4 [3]
000000 c9 14 b6 be d9 94 f8 bc 30 6a 73 be
       -0.35562733 -0.030344414 -0.23770976

sequential/dense_2/MatMul/ReadVariableOp:0 f4 [100, 100]
000000 df ee a1 3d 73 ac e6 3d 75 b9 51 bd a9 b4 51 bd
       0.07906889 0.11263361 -0.051202256 -0.05119768
000010 61 13 c1 bc 6d 91 04 be 6d c7 b9 be 2d 31 96 bd
       -0.02356881 -0.129461 -0.36284962 -0.07333598
000020 24 87 10 3e 0f 3d b6 3c 40 44 0a 3e 66 36 27 3e
       0.14114052 0.022245912 0.13502598 0.16329345
000030 2f 07 9c 3d 21 38 70 be 7a 1e 02 3d 48 6d 08 3e
       0.07618558 -0.23458911 0.031767346 0.13322937
000040 6f 77 85 3e 89 64 36 bb d1 c6 c9 be 91 73 5f be
       0.26067683 -0.002783092 -0.39409497 -0.21821429
000050 62 cf cb bd ba b2 a6 3d 80 9e 0b 3e 0f a4 65 bd
       -0.099516645 0.08139558 0.13634682 -0.05606466
000060 0c e2 15 be b4 2f 8b 3d b2 56 38 be d0 14 8b be
       -0.14637011 0.06796208 -0.18001822 -0.27164316
000070 42 9e 71 bd ca 68 b7 be 88 10 dc 3d 3d f8 ca be
       -0.058988817 -0.35822135 0.107453406 -0.39642516
000080 11 42 ae be ee e6 5e be dc 99 bb bd 94 e0 5c be
       -0.3403478 -0.2176778 -0.09160206 -0.21570045
000090 52 d8 45 be f5 7d 46 3e 73 a3 92 3d fe 43 1e be
       -0.19320801 0.19383986 0.07160082 -0.15455624
0000a0 dc 8b 8b bd a3 80 80 be 85 54 1f be a2 a8 a4 bd
       -0.068137854 -0.25098142 -0.15559585 -0.08039977
0000b0 96 00 f4 3d fd b7 c2 bd 1d 51 ef 3c b1 49 e6 bd
       0.11914174 -0.09507749 0.029213483 -0.11244524
0000c0 17 ab 77 3d df 06 41 3e b0 18 96 3d 8c 6f b2 3d
       0.0604659 0.18850277 0.073289275 0.08712682
0000d0 a9 a2 5c 3d 2a 1c cf bc 80 10 3d bd b7 76 37 3e
       0.053866062 -0.025281984 -0.046158314 0.1791638
0000e0 3f b2 2d 3e 73 21 24 be 77 26 0b 3c c9 9a 2a 3e
       0.16962527 -0.16028385 0.008493057 0.16660608
0000f0 f0 cb 32 3e af b9 6b be 95 1e 49 be c0 d7 4c be
       0.17460608 -0.23020051 -0.19640572 -0.20004177
000100 43 f9 c3 be 02 6b a6 3d 41 65 61 bb 75 eb 8e 3c
       -0.3827611 0.08125879 -0.0034392627 0.017446259
000110 6d 1b 0e bb 27 ef b4 be b4 2f 94 3d 9c 15 ae 3c
       -0.0021683828 -0.3533871 0.07235661 0.021250539
000120 8a a0 14 3c 84 9b 78 bd 18 df fa 3a 49 b0 d8 3e
       0.009071479 -0.060695186 0.0019139973 0.42321995
000130 a0 bb 2b 3d bd 0a 4e bd 02 70 b3 3d 34 bb 84 be
       0.04192698 -0.05030321 0.08761598 -0.25924075
000140 d7 f8 6b be f0 82 69 be 61 6b 84 be 4a 29 99 3d
       -0.23044144 -0.22803855 -0.25863174 0.074785784
000150 e6 9f fa bd df f2 d1 bc ac 8a 79 3e b6 af 6f 3d
       -0.122375295 -0.025628505 0.24369305 0.05851718
000160 a6 7c 6d bb de 66 30 bd 05 33 f6 3d 52 d2 71 3e
       -0.0036237626 -0.04306685 0.1202145 0.23615387
000170 7f 36 84 3e 37 a2 ad bc 09 a9 80 bd a2 65 d9 bd
       0.25822827 -0.021195514 -0.06282241 -0.10615088
000180 aa ee d9 bd 08 8e 3f be 7f 62 a3 3e a4 fb 3d bd
       -0.10641225 -0.18706524 0.31911084 -0.04638256
000190 7b 81 85 3b bc 94 98 3d fd c2 b1 be 00 f0 64 bd
       0.004074273 0.07450244 -0.34719077 -0.055892944
0001a0 d8 d3 a3 3d 6f 52 24 be b4 00 28 bf 2a a9 0c bd
       0.0799939 -0.16047071 -0.6562607 -0.034341015
0001b0 3d ff d0 bd 5c e1 47 bb 9a b1 d0 3d ea b5 f4 3c
       -0.10204933 -0.0030499315 0.10190125 0.0298719
0001c0 aa 0d 01 3e 9e 97 3b 3d e7 0a 1f be 9e 5d 94 bd
       0.12602869 0.04579889 -0.15531503 -0.072444186
0001d0 a4 3a 20 be b9 0f 72 3d 2c fc 25 be b5 8b 1d be
       -0.1564737 0.059097026 -0.16209477 -0.15385325
0001e0 f0 1d 2c be ab 59 1e 3d 46 06 7a 3d e1 b7 a1 bd
       -0.16808295 0.038659733 0.06104114 -0.078964
0001f0 7f 7c ba 3e 08 2e fc 3c a5 1a 70 be ac f6 4d be
       0.36423108 0.030783668 -0.23447664 -0.20113629
000200 e6 d1 0b bd 52 e7 a3 be 7d 75 2f be e3 9b df be
       -0.03413572 -0.3201242 -0.17134662 -0.4367362
000210 69 cc 77 be 2c 38 42 be f1 8c 39 be b2 3c 23 be
       -0.2419907 -0.1896674 -0.18120171 -0.15941122
000220 87 46 2b be e7 57 22 3e 61 30 4a bd 14 33 a4 3d
       -0.16726123 0.15853845 -0.049362544 0.08017555
000230 92 b1 a3 bc ed 73 7a be 6f e4 95 3b d8 be 53 bd
       -0.019982133 -0.24458285 0.0045743505 -0.051695675
000240 9c 7a 32 bd 50 10 b5 bc 5e 05 82 3c d8 84 da bd
       -0.04357396 -0.022102505 0.0158717 -0.10669869
000250 fa 94 d8 bc 75 af 01 be 48 83 cb bd 35 10 48 bd
       -0.026438225 -0.12664588 -0.09937149 -0.04884358
000260 b7 ce 0a bd 96 3f 40 bd e2 9e 49 bb fb 3a ad bd
       -0.033888545 -0.04693564 -0.0030764868 -0.08458515
000270 55 8c 4e 3d 4a 5c db be b9 d0 8c 3d d9 a2 e8 3e
       0.0504268 -0.42843848 0.06875748 0.45436743
000280 2b bf ce bd d2 53 0e be fa d2 3d be 9d c4 b3 be
       -0.10095056 -0.13899162 -0.18537512 -0.35110942
000290 31 29 08 bd 38 8b 42 be 68 0f 43 bd 00 7a cc 3c
       -0.03324241 -0.1899842 -0.047622114 0.024960518
0002a0 d2 a7 06 3d 25 d7 ce be b8 ba 20 be f6 33 bd bd
       0.03287489 -0.40398517 -0.15696228 -0.092384264
0002b0 e5 28 e5 bd 4a 95 9c 3d eb 29 05 3d 63 36 e7 bd
       -0.11189441 0.07645662 0.03251068 -0.1128967
0002c0 87 de 63 be 2a 6e 15 be 62 01 9d bd ac 49 22 be
       -0.22252856 -0.14592806 -0.076662794 -0.15848416
0002d0 a3 58 94 3c 51 9b 6a bd 1e f1 51 be 98 8e 91 bd
       0.018108672 -0.057277028 -0.20502135 -0.07107276
0002e0 fc ab 3a bf 3d b3 09 3d 83 e1 75 3c ba 88 1a 3e
       -0.7291868 0.0336182 0.015007379 0.1509122
0002f0 a3 ea b4 bd 66 7b 12 be de d5 e0 3c b4 29 31 bc
       -0.08833816 -0.14304885 0.02744573 -0.010813165
000300 4a 45 d7 be 8a 10 07 bd cb 69 2e 3e a5 fa 23 bd
       -0.4204505 -0.032974757 0.17032544 -0.040033955
000310 b1 65 21 be 6e c9 b7 bc c6 04 8f bd 77 09 50 bc
       -0.15761448 -0.022434916 -0.06983332 -0.012697569
000320 64 96 14 be 1b ec 20 bf 7c 94 2c 3d f6 62 3c 3d
       -0.14510494 -0.6286027 0.042133793 0.045992814
000330 5d f7 b7 ba e7 6b 0a 3e 93 7d 09 3e b4 00 15 3d
       -0.0014035512 0.13517724 0.13426809 0.036377624
000340 ee 67 10 be 8c 39 15 bf 39 b8 11 be 07 29 57 bd
       -0.14102146 -0.58290935 -0.14230432 -0.05252936
000350 3a 82 be bc f1 31 83 bd 6a c9 1d 3d 46 e7 36 bf
       -0.023255456 -0.0640601 0.03852216 -0.71446645
000360 14 96 2b be 7a 7e bb 3d 1d 59 f1 bd 99 1d 2d 3d
       -0.16756469 0.09154983 -0.11784575 0.042264555
000370 88 f8 d4 3d a7 4e 30 be 7d 59 9b 3b 64 79 c4 3c
       0.10398966 -0.17217503 0.0047408924 0.023983665
000380 8a 6d 20 3e d5 c5 c5 bc 33 49 95 bd 3d e1 ab bc
       0.15666786 -0.024142185 -0.07289352 -0.020981425
000390 55 c4 f2 3c ab 4f 74 bd a3 2a 0d bf 7b 1c 49 bd
       0.029634634 -0.05964629 -0.55143183 -0.049099427
0003a0 30 9c 50 3d 9b 56 97 3c 76 9b 10 3d 6b 86 53 3d
       0.050930202 0.018473914 0.03530451 0.051641863
0003b0 c6 3e f2 bc d2 97 4e bd d3 85 47 bc 71 ca 62 be
       -0.029570948 -0.050437756 -0.012177902 -0.22147538
0003c0 b2 f6 3f 3d 1c 52 8b 3d 9d 23 fa bc a2 82 61 3e
       0.046866126 0.068027705 -0.03053456 0.22022489
0003d0 e6 3c f3 bc 53 08 80 3d cd 6f 03 bf 1b 5d f2 bd
       -0.029692125 0.06251588 -0.5134247 -0.11834165
0003e0 71 eb 14 bf 31 3f c9 3c a7 4f 29 bf 32 f2 4e be
       -0.58171755 0.024566265 -0.66137165 -0.20209578
0003f0 3b 73 e0 bd a0 ed 17 3c ca a4 8a 3d 3e d4 de be
       -0.109594785 0.009272963 0.06769712 -0.43521303

sequential/dense_2/BiasAdd/ReadVariableOp:0 f4 [100]
000000 97 3b 3d bd c8 9f 07 3e 64 05 00 3e 08 da 9a bd
       -0.046199407 0.13244545 0.12502056 -0.075611174
000010 98 5a e9 3d 8c 4e c5 bd eb c4 f9 3d dc 49 e5 3d
       0.113942325 -0.09634122 0.12195762 0.11195728
000020 ad 6f 2d bd 7d fd f0 3d e7 40 d0 3d 95 65 d6 3d
       -0.04234283 0.11767099 0.10168629 0.10468594
000030 c9 48 1b 3e fc 60 aa bd 96 d9 41 bd 91 8d e8 3d
       0.15164484 -0.083192796 -0.047326647 0.11355127
000040 0a 47 dd be 9c f4 0c 3e 39 68 7f bd 42 df e9 bd
       -0.4321826 0.13765186 -0.062355254 -0.11419536
000050 b1 cd 18 3e 8f bc 31 be 56 8d 06 bc 68 71 51 3e
       0.14922215 -0.17357086 -0.008212408 0.20453417
000060 4f 6b 6d 3e cc 7b 1d 3e dd ad 33 bd 00 fb af bd
       0.23185466 0.15379256 -0.04386698 -0.08592796
000070 a8 bd bc bd e1 03 90 bd 46 d0 07 3e 2f d8 09 3e
       -0.092158616 -0.0703199 0.13263044 0.13461374
000080 54 0d 00 3e ce 35 2c 3e e3 42 1b 3e 27 5b 79 bd
       0.12505084 0.168174 0.15162234 -0.060877945
000090 42 82 05 be 0d 0d ee 3d 8e 43 4a bd 37 be 91 bd
       -0.1303797 0.11623583 -0.04938083 -0.07116359
0000a0 40 60 9c bd 6c e1 11 3e 4f 4b 7b bd 09 3a 12 bd
       -0.07635546 0.14246148 -0.061351117 -0.035699878
0000b0 df 8f 12 3e 39 40 0a 3e 0f 28 e8 3d e1 3d 47 bd
       0.14312695 0.13501061 0.113357656 -0.048642997
0000c0 91 08 fc 3d cd 70 97 3d 77 a0 0b 3e b7 09 64 bd
       0.123063214 0.07394562 0.13635431 -0.055673327
0000d0 98 b3 16 3e 68 a3 e7 3d a4 ab 0b be 24 3d 0b 3e
       0.14716947 0.11310464 -0.13639694 0.13597542
0000e0 d5 9c ec 3d 12 d6 20 bd b8 46 2e 3e 2f 76 68 3e
       0.11553351 -0.039266653 0.17019165 0.22701333
0000f0 98 88 28 3e 43 09 07 3e 2f 77 27 3e 6d a6 1c 3e
       0.16458356 0.13187127 0.16354059 0.15297861
000100 97 34 06 bd ea d4 ff 3d 4d 60 f0 3d 4c c5 f1 3d
       -0.032764997 0.12491782 0.11737118 0.118052095
000110 7f 8a ac bc 16 07 08 3e 10 1a 83 bd d3 cf 03 3e
       -0.021062134 0.13283953 -0.064014554 0.12872247
000120 86 6d 11 3e 46 3c 04 bd 34 6c 01 3e 7b 62 a6 3d
       0.14201936 -0.032284044 0.12638932 0.081242524
000130 18 fa 1d 3e b2 bf ef 3d f0 a0 1a 3e b2 b4 08 3e
       0.15427434 0.11706485 0.15100455 0.1335018
000140 b1 00 7e bd 5f 5c 1a 3e 58 d9 03 3e 2d e3 e6 3d
       -0.062012378 0.150743 0.12875879 0.11273799
000150 49 51 7f 3d ab 53 b6 3d d5 ab b4 3d fa 27 04 3e
       0.06233338 0.08902677 0.08821837 0.12905875
000160 8b 64 fa 3d b7 99 88 bd 35 ad 2a be ba a9 0a 3e
       0.12226208 -0.06669944 -0.16667636 0.13541308
000170 53 6e 8d be 06 2c b9 bd e3 a3 e7 3d e4 77 0b be
       -0.27623233 -0.090416 0.11310556 -0.13619953
000180 ab 3d 38 3e e9 6f d4 bd c4 15 b6 3d 93 5b 1e 3e
       0.17992274 -0.10372908 0.0889087 0.1546462

sequential/dense_1/MatMul/ReadVariableOp:0 f4 [100, 100]
000000 91 cf d6 be dd 52 c6 3d b3 7b 67 be 75 3b a0 bd
       -0.41955236 0.09683774 -0.22605781 -0.078238405
000010 6b ef 13 3e 78 e0 0f bd 7d 9b 6f 3c 3f 17 7c be
       0.144468 -0.03512618 0.014624474 -0.24618243
000020 07 60 de 3d c2 80 c6 3d 4d 31 31 bf 4e 20 19 bf
       0.108581595 0.09692527 -0.6921585 -0.5981492
000030 4b 83 67 be e5 16 8c 3c ba 55 6d be 67 24 cd bc
       -0.22608678 0.01710076 -0.23177233 -0.025041772
000040 33 fb a2 3e 77 23 07 3e a7 5e 6e bc 35 f1 0c bc
       0.31832275 0.13197123 -0.014548934 -0.00860243
000050 1f 26 b0 3d ed 43 0f bb a4 ed b1 3d 2c 51 b9 be
       0.08601021 -0.0021860555 0.086879045 -0.36194742
000060 46 65 f2 be 35 c8 07 be ee 11 4f be 29 b6 6a be
       -0.4734289 -0.13259967 -0.20221683 -0.22921051
000070 ea 47 17 be 65 84 4c 3d 00 fe a7 be ce 8a 07 3e
       -0.14773527 0.04993095 -0.32810974 0.13236544
000080 ca 5c c9 bd c9 b7 88 3c 6c cc 15 3e 70 6c 8a 3e
       -0.09832151 0.016689198 0.14628762 0.27035856
000090 61 0a 17 be ff b9 58 3c fa 50 60 be 7e a8 4f be
       -0.14750053 0.013227939 -0.2190589 -0.20279118
0000a0 da 2a a4 3e 69 86 d6 bd 10 e7 59 3d dd a7 3a 3e
       0.32063943 -0.104748555 0.053198874 0.18228097
0000b0 9f 65 b6 be a8 62 56 3e f9 ae 47 bd 7f 60 e6 3d
       -0.35624406 0.20936072 -0.04875085 0.11248874
0000c0 7a 47 bb be 7d cd b4 3d 68 66 9d 3e 08 9a 57 bd
       -0.3657797 0.08828256 0.30742192 -0.05263713
0000d0 82 dd 3b be 64 83 65 be 83 14 2c bd a8 4d e8 bd
       -0.18346217 -0.22413403 -0.04201175 -0.11342937
0000e0 1f 0c 4d 3e fb b0 36 3e 51 c8 aa 3d 64 23 29 be
       0.20024155 0.1784095 0.083389886 -0.16517407
0000f0 55 cd a7 3c 39 22 5a 3d 8c 02 fc be de 7c 08 bc
       0.020483652 0.053255294 -0.49220693 -0.008330552
000100 0f 39 e6 3e 23 52 95 bd da 8c 98 be 34 7e 7d be
       0.44965407 -0.07291057 -0.2979496 -0.24755174
000110 55 f4 85 be af 70 63 3e 69 d1 04 be e3 b2 89 3e
       -0.26162973 0.22210954 -0.12970509 0.26894292
000120 c3 59 a6 be d4 c8 06 be f6 9e 66 be a6 4a dc 3a
       -0.32490358 -0.13162547 -0.22521576 0.0016806915
000130 0c 02 6d 3e 48 8f 24 be 2f 9c 33 bd de 87 2c bf
       0.23145312 -0.16070282 -0.04385012 -0.67394817
000140 04 a7 3a 3d 3b 63 41 bd c8 e3 8c 3e 4b 82 8a be
       0.045569435 -0.047213774 0.27517533 -0.2705253
000150 32 68 b2 be 61 8a a9 bf d0 9a 13 bf 11 a2 b4 3d
       -0.3484512 -1.3245355 -0.576581 0.08819974
000160 a1 16 38 be 0b e9 46 be d0 b6 01 bf db 87 25 be
       -0.17977382 -0.19424836 -0.50669575 -0.16165106
000170 ee d4 c7 3d 80 ea 6f be 45 51 a0 be 12 ea 82 bd
       0.0975741 -0.23429298 -0.31312004 -0.063923016
000180 7c f1 5e bd 5a 25 da 3e 0c 6a c6 be ac d2 5e be
       -0.054429516 0.42606622 -0.38752782 -0.21760052
000190 1c 66 8c bb 35 39 cd bd 10 a4 0c 3d 13 b3 39 3e
       -0.0042846333 -0.10020677 0.03433615 0.18134718
0001a0 37 52 31 be dc 68 dd bd 6e bf 93 bd 30 59 49 be
       -0.17316519 -0.10811016 -0.07214247 -0.19662929
0001b0 11 dd d4 3c e7 94 55 3d 31 c0 d0 3c 70 d2 1e 3e
       0.025984319 0.052143957 0.025482269 0.15509963
0001c0 da 5b 0b 3f 87 a0 18 3e 59 cd a5 bc 7e be 21 3d
       0.5443703 0.14904986 -0.020239519 0.039488308
0001d0 28 f5 44 bd 72 89 b0 bd 5a 12 1e be 28 41 6c bd
       -0.04808536 -0.086199656 -0.15436688 -0.057679325
0001e0 49 7f 4d 3d 90 7d 56 be 8c ee a8 3d e4 29 ba 3c
       0.050170217 -0.20946336 0.08248624 0.022725053
0001f0 e0 e5 a6 be 06 c5 8a be 33 64 3e 3c d3 4c 9c 3d
       -0.32597256 -0.27103442 0.011620569 0.076318406
000200 99 4c 88 be 82 e6 41 3e 38 24 79 bd da e2 b2 be
       -0.2662094 0.18935588 -0.060825557 -0.349387
000210 03 48 80 be 1b 2d a7 bc e5 6f af bd c6 2e 4e 3d
       -0.2505494 -0.02040725 -0.08566264 0.050337575
000220 dc ae 29 be 19 af 5f 3e bb be c1 be e2 b4 7f bb
       -0.1657061 0.21844138 -0.37840828 -0.0039017727
000230 a2 98 fc bc 76 61 89 3c e4 95 17 bd e6 db 6a bd
       -0.0308345 0.016770106 -0.03700818 -0.057338618
000240 26 5d 80 bd 13 56 7f 3c 1e 57 6d be 74 08 f5 3d
       -0.06267767 0.015584487 -0.23177764 0.11964503
000250 ce 80 d5 bd 77 2b aa bc 7e b2 a7 3d 48 ec 54 be
       -0.10424958 -0.020772679 0.081883416 -0.20793259
000260 ad 92 f4 3d 8c ae 76 bd b2 3f 3a be 9e f6 88 bd
       0.11942039 -0.060225055 -0.1818836 -0.066876635
000270 ab c3 3c be ab 61 d5 bc f3 89 32 bd f3 d3 2d 3e
       -0.18434016 -0.026047548 -0.04358859 0.16975383
000280 02 39 1a 3e 64 db 99 be 23 9c 37 3e 15 99 40 be
       0.15060809 -0.30050194 0.17930655 -0.18808396
000290 b5 a7 25 3e 3e 7d 5e 3e 06 88 4c 3e 33 48 c0 bc
       0.16177256 0.21727464 0.19973764 -0.023471927
0002a0 f2 28 90 3d 2a a5 a5 bd 50 92 85 3b 49 e1 1d bc
       0.0703906 -0.08088143 0.0040762797 -0.009636232
0002b0 37 72 91 3e b0 f3 57 3d 06 3e e4 3d a7 92 87 be
       0.28407452 0.052722633 0.111446425 -0.26479074
0002c0 66 ca 66 be 4e 75 45 be 1c 33 54 be be d8 93 3d
       -0.22538146 -0.1928303 -0.20722622 0.07219075
0002d0 98 70 86 3c 22 93 a2 3d 15 70 69 be 7c 85 70 3d
       0.01641111 0.079382196 -0.22796662 0.05872105
0002e0 ba a1 29 3e 35 3d 28 3e c1 79 05 be 2e de f9 be
       0.165656 0.16429599 -0.13034727 -0.48802322
0002f0 bb 6d 78 be 98 1a 7c 3d a4 88 05 3e 92 dc e0 bc
       -0.24260609 0.0615488 0.13040406 -0.027448926
000300 d3 be de 3b 55 17 3c be 15 bd 21 be 4f a2 b8 b9
       0.0067976504 -0.18368275 -0.15794785 -0.00035216144
000310 31 32 b9 bd dc 9b 5c be db e1 2b 3d 95 51 f8 3d
       -0.090427764 -0.2154383 0.04196344 0.121249355
000320 e2 4f dd bd 99 97 23 3e 8e a4 b7 3e cb a5 d0 3d
       -0.10806252 0.15975799 0.35867733 0.101878725
000330 e8 d3 84 be 19 a3 08 be 09 aa ac bd 32 d2 09 3e
       -0.25942922 -0.13343467 -0.08430869 0.1345909
000340 49 cf 9f be ce 72 e6 bc d8 ab 39 3d f6 87 fc be
       -0.31212834 -0.028130915 0.0453299 -0.4932248
000350 7a 13 9a be a2 75 69 be 9f 56 bf 3d d9 cf 7d bd
       -0.30092984 -0.2279878 0.093426935 -0.061965797
000360 33 8d 90 bc 5b 2f 3b 3d 2e b8 f3 bd 39 f1 03 be
       -0.017645454 0.04569946 -0.11900364 -0.12884988
000370 26 57 ae be 81 94 51 3e cb 7a 08 3e 91 e1 55 be
       -0.34050864 0.20466806 0.13328092 -0.20886828
000380 de b1 52 3e 5d af 21 be 6e 86 11 3e 31 9e 90 bc
       0.20575663 -0.15789552 0.14211437 -0.017653557
000390 e2 bf 36 be a4 3c 44 bd 50 da f7 be d8 80 11 bd
       -0.17846635 -0.047909394 -0.48408747 -0.035523266
0003a0 e2 bc ce 3e db 93 88 be 24 32 a1 be 72 55 e9 3d
       0.4037848 -0.26675305 -0.31483567 0.113932505
0003b0 ac cf 96 be 9b d2 8b bd 98 a6 8e 3e 1c 25 d5 3d
       -0.29455316 -0.06827279 0.27861476 0.10407469
0003c0 64 5d ee be 24 bd 4c be 38 ce c3 3c fb 06 0c bf
       -0.46555626 -0.19994026 0.023902044 -0.5469815
0003d0 62 44 36 3d 68 34 80 bd 59 c0 69 3d 29 b1 ac 3d
       0.04449881 -0.06259996 0.057068203 0.08432228
0003e0 91 83 bf be 51 79 bd bd 20 d9 7d be f9 d8 ab bb
       -0.37405065 -0.09251655 -0.24789858 -0.005244371
0003f0 5a cc d3 3b 22 2c ad bc f8 81 cf 3d 7c 4e da be
       0.0064635696 -0.021139208 0.101322114 -0.42638004

sequential/dense_1/BiasAdd/ReadVariableOp:0 f4 [100]
000000 33 6a 50 3d b8 7e 07 3e e6 73 22 bc c1 f0 cb bd
       0.05088253 0.13231933 -0.009915328 -0.099580295
000010 91 8d 03 bd ad e6 f4 3d 41 24 c8 3d c4 f5 18 3d
       -0.03211743 0.119580604 0.0977254 0.037343755
000020 2e 12 85 bd 50 b7 07 be cc e7 59 bc 8a 37 34 bb
       -0.06497608 -0.13253522 -0.013299894 -0.0027498924
000030 1a 8b 21 3b 56 2f 19 3d 24 5a 58 3d c2 68 84 bd
       0.0024649561 0.03739866 0.05282034 -0.064652935
000040 c1 30 0d be 42 92 19 3e ff 05 ac 3d 01 f3 14 be
       -0.1378813 0.14997199 0.08399581 -0.14545824
000050 c4 11 42 3d 10 3c c7 3c 74 bb 44 bd 39 b3 54 3d
       0.047380224 0.024320632 -0.04803033 0.051928733
000060 b6 a6 79 3d c5 54 02 3c 7a 67 6b 3d ee 26 e8 3c
       0.060950004 0.007954781 0.05747173 0.028338876
000070 0e ec 53 3d c5 64 91 bd 2d f4 3c bd a1 4a 19 be
       0.05173879 -0.070992984 -0.0461313 -0.14969875
000080 fc 1d 14 3b 5d fd bd 3c 58 bc 5c bb 33 cb 10 be
       0.002260088 0.023192102 -0.0033681598 -0.14140014
000090 ed 4a e9 3d 83 94 c9 bd 0e 24 f5 3c 0a 25 ae 3c
       0.11391244 -0.098427795 0.029924419 0.021257896
0000a0 6e de 65 3d 00 1b 80 be 59 dd 7f bd d1 87 9a 3d
       0.05612033 -0.250206 -0.062466953 0.07545436
0000b0 59 fc 33 3d 2a eb 52 be 2b 75 31 3d 0e 1f db bc
       0.04394183 -0.2059752 0.04332463 -0.026748206
0000c0 a6 00 09 3e f6 d3 bb bd ed cb f0 3b ed d8 8c 3d
       0.13379154 -0.09171288 0.0073485286 0.06877313
0000d0 29 3d d4 bd 77 07 a9 3c 6b d7 0e bd 4b d5 13 3e
       -0.10363228 0.020633442 -0.034873407 0.14436834
0000e0 23 7c 36 3d fe b6 95 3d 2e a0 a3 3c d2 7d 1f 3c
       0.04455198 0.073102936 0.01997384 0.009734588
0000f0 36 82 6d 3c f2 54 81 3d e4 1f dd 3b 94 df 0c 3e
       0.014496377 0.0631503 0.0067481864 0.13757163
000100 f8 f7 b1 bc df 72 70 bc 3b c8 84 bb f0 9f c3 3b
       -0.021724686 -0.014675825 -0.0040521896 0.005969994
000110 18 9e eb 3c b4 1a 2c 3b 3d 00 0f 3e be 94 80 3d
       0.028761908 0.0026261033 0.13964935 0.0627837
000120 ad 27 2c 3d 77 f9 ad bc d7 15 a8 3c c0 6e c4 3d
       0.042030025 -0.021237118 0.020518227 0.095914364
000130 b1 4c 5a 3d ea 7b a0 3d 48 8c 2f 3d de 07 ea 3b
       0.053295795 0.07836135 0.042858392 0.007142051
000140 63 7b 45 be 91 d7 61 3d df 8c 75 3d 0f ce 05 bd
       -0.1928535 0.05513722 0.0599488 -0.032667216
000150 2d 18 7d 3d 2e ce 92 3d 4a 74 15 ba db 93 35 3d
       0.061790634 0.07168232 -0.00057012273 0.04433046
000160 3a e4 88 bd a7 3b e8 bd 1c 8d 3a 3d 2f 05 d2 3d
       -0.06684156 -0.11339503 0.04554473 0.10254895
000170 42 1d 41 bd 47 58 15 3d 8a 2f 29 3d 39 59 ca bd
       -0.047147043 0.03646114 0.041305102 -0.09880299
000180 4c d9 2d 3d 45 39 16 3d bc 02 f6 3c d8 6b e2 bc
       0.04244356 0.03667571 0.0300306 -0.027639315

sequential/dense/MatMul/ReadVariableOp:0 f4 [12, 100]
000000 5c 35 35 bc 96 40 00 be a5 8a b3 3c f2 d9 60 be
       -0.011060085 -0.12524638 0.021916697 -0.2195814
000010 86 3a 59 3d 66 72 d8 bd 73 f6 bf bd f1 81 62 3d
       0.053034328 -0.10568695 -0.09373178 0.055299703
000020 5f 0b ea bd a8 d0 58 3c a0 84 4d 3e 71 ed 03 3d
       -0.1142795 0.013233341 0.20070124 0.032208864
000030 d2 ea 13 3c 97 d4 54 bd e3 58 98 bc 52 a1 69 be
       0.0090281535 -0.051960554 -0.018597072 -0.22815445
000040 92 56 81 3d 8d 22 b3 3d b2 ac ba 3d f8 51 be 3d
       0.0631534 0.087468244 0.0911497 0.09292978
000050 07 0c 0b be 9a f2 8b bd 8a a4 23 be df 40 13 be
       -0.13578807 -0.06833382 -0.15980735 -0.14380215
000060 41 c2 00 3e 17 57 21 be a0 e4 01 be aa ed d3 3d
       0.12574102 -0.15755878 -0.1268487 0.10348065
000070 86 79 2c bd b0 60 a5 3d c1 96 62 3d 61 a6 3a 3d
       -0.04210808 0.08075082 0.05531955 0.045568828
000080 54 46 01 3d 68 4e 3d 3e 3b 88 4c 3e 22 42 c6 bd
       0.03156121 0.18486941 0.19973843 -0.096805826
000090 95 42 3e 3c f5 37 4d be 23 23 09 be 4d 10 09 be
       0.011612554 -0.20040877 -0.1339231 -0.13385125
0000a0 db c9 08 be b8 2b 0d bc 47 5e 74 3e 80 fe fa 3d
       -0.13358252 -0.00861638 0.23864089 0.12255573
0000b0 89 c8 58 bd 6f 4c 5b 3e ec 4c 41 3e 00 07 e6 bd
       -0.05292562 0.21415876 0.18877 -0.11231804
0000c0 0a a7 ef bd f2 b7 e5 3d 8a 3a 56 bc 3d 86 f1 3b
       -0.11701782 0.112167254 -0.01307548 0.007370739
0000d0 ad 46 ac bd cf d4 13 be aa 39 6a 3e df 9b 42 3e
       -0.08411918 -0.14436649 0.2287356 0.19004773
0000e0 c2 7e eb bd 41 74 98 3d 3c 57 29 3d 47 cc 76 3d
       -0.114987865 0.07444049 0.04134296 0.060253408
0000f0 60 4b da bd 28 c6 0d be 03 2a 81 3e fe e7 c1 3b
       -0.10658908 -0.13845122 0.25227365 0.005917548
000100 0c e5 d4 3a 13 2a 67 be b4 f9 ae 3d 96 f0 b7 3d
       0.0016242578 -0.22574644 0.08543721 0.08981435
000110 23 7e 85 3d 07 31 8e 3d db 73 c8 bd f1 12 84 be
       0.06518199 0.06942945 -0.09787723 -0.257957
000120 ff fd a0 bc b6 af 4e 3c 5f 59 14 3e 26 12 9f bc
       -0.019652365 0.012615135 0.14487217 -0.019417834
000130 f1 d9 2e be 57 9e 86 bd 81 29 9d bd 6d e7 98 3c
       -0.17075326 -0.0657317 -0.07673932 0.01866504
000140 22 7e 18 be 90 9b 91 bc 8f 7e c4 bd 1d f7 65 3d
       -0.14891866 -0.017774373 -0.09594452 0.05614387
000150 41 c4 f0 3d df 9e 8b bd 2c dd 47 3d 64 c2 3c 3e
       0.117561825 -0.06817412 0.04879491 0.18433529
000160 78 38 47 bd e3 43 31 3e e2 dd 3e bd 9c a7 c6 bb
       -0.048637837 0.17311053 -0.046598323 -0.006062461
000170 f8 41 13 3e 52 14 6a be 33 a7 d5 3c d7 68 90 3e
       0.14380634 -0.22859314 0.026080703 0.28204986
000180 29 89 b8 bd 13 17 22 3e 56 7b 1c 3d 78 cb 27 be
       -0.09010536 0.15829115 0.03820356 -0.16386211
000190 4b 07 0e 3c 58 c8 ab 3d 94 da 0c bc c7 76 dc 3e
       0.008668731 0.08387822 -0.008597035 0.4305937
0001a0 bc c1 43 bc 8c 7e 07 be 3d 3e a1 3d 27 97 0f bd
       -0.011948045 -0.13231868 0.07873199 -0.03505626
0001b0 03 09 15 be a6 1c 32 3e 78 1c 9b bd e2 66 1a 3e
       -0.14554219 0.17393741 -0.07573789 0.15078309
0001c0 01 ff 48 3d 06 17 e6 3c 60 67 07 be 85 a4 fc 3d
       0.049071316 0.02808715 -0.13223028 0.12336067
0001d0 83 fd a4 bd d3 ea 73 3e 50 4f 6e 3c 68 af 4d 3d
       -0.08056166 0.23820047 0.014545277 0.05021611
0001e0 3c c1 7c 3e 1c dd f7 3b d0 74 10 be 18 98 1f 3e
       0.24683088 0.0075642 -0.1410706 0.15585363
0001f0 a3 59 06 3d 6a c6 9f 3d 1b 2c 5a be d5 51 30 be
       0.032800328 0.07801516 -0.21305887 -0.17218716
000200 7f fc 61 bb f0 ff 69 3e 1e 9a c8 bd 8e d9 3e be
       -0.0034482775 0.22851539 -0.097950205 -0.18637678
000210 16 31 2e be 69 d5 94 3e 0e ce 05 be 8b 0f 1d 3e
       -0.17010912 0.2906907 -0.13066885 0.1533796
000220 16 29 70 be 19 eb 90 3d fa 55 43 be 21 4e 20 3e
       -0.23453173 0.07076091 -0.19075766 0.15654804
000230 d3 79 60 3e db b0 08 3e 50 6b 99 bd 01 94 c5 bc
       0.21921472 0.13348715 -0.07491171 -0.024118425
000240 42 fc 56 3d 09 b7 a4 bc d9 eb 12 3e 42 01 3b bd
       0.052486666 -0.02010681 0.14347781 -0.045655496
000250 8b 4f 1e 3d 44 c8 d3 bc a7 8f ba 3d e5 03 80 3d
       0.038650077 -0.02585233 0.09109431 0.06250743
000260 74 1d d9 bd 5a bc 0c be bc 27 f5 3d 2c f2 c3 3d
       -0.10601321 -0.13743725 0.11970469 0.09567675
000270 60 5d 7a 3e 5e bd 82 3e 25 15 a2 3c 17 2f 48 3e
       0.24449682 0.255351 0.019785473 0.19549213
000280 5c ad ef 3d a2 f2 c7 3d 05 0a 1e be f1 a4 4c bc
       0.117029876 0.097630754 -0.1543351 -0.012490497
000290 e1 fb 85 be 9c a9 ca bc eb 79 a6 bd 4f 38 90 bd
       -0.2616873 -0.02473908 -0.08128723 -0.0704199
0002a0 e9 14 69 be 65 d7 6c 3d 33 6a 8e 3d 96 ff da bc
       -0.22761883 0.057822604 0.0695385 -0.026733201
0002b0 db 3c 11 be 2a b6 8e bc e0 09 44 3e c1 2b 38 3e
       -0.14183371 -0.017420847 0.19144392 0.17985441
0002c0 6a 6a 48 3e 15 c8 d5 bd 42 7c ff 3d d0 13 0f be
       0.19571844 -0.10438553 0.12474872 -0.13972402
0002d0 23 42 5f bc 4a 18 73 be 0e 96 dc bd e9 c0 fa bd
       -0.013626608 -0.23739734 -0.10770808 -0.12243826
0002e0 d0 d3 13 3e 85 19 87 bd dd e2 20 3e c7 10 13 be
       0.14436269 -0.06596664 0.15711541 -0.14361869
0002f0 8f ec f4 3d 00 d5 32 3e 86 0b 38 3e 26 82 6d be
       0.119591825 0.17464066 0.17973146 -0.23194179
000300 32 7b e8 bd 27 3f 34 3e 3a 12 75 3d 67 7c 87 3e
       -0.11351623 0.17602216 0.059831835 0.264621
000310 84 32 a9 3d c7 a8 96 bd 8b 99 79 3d a1 be 82 3d
       0.08261588 -0.073564105 0.060937446 0.06384016
000320 33 10 c6 bd 6e bd c6 bd 06 6d 5d be 50 72 12 3f
       -0.096710585 -0.097040996 -0.2162362 0.5720568
000330 a7 f2 2f bd f9 e7 40 3b 5b 88 f7 3d 77 04 4e 3d
       -0.04295602 0.0029435141 0.120865546 0.050297227
000340 24 5f 36 3d 02 b5 33 3e c8 8d 77 bd c6 86 91 3c
       0.044524327 0.17549518 -0.060437948 0.01776446
000350 e5 d4 84 be 85 c9 9f bd aa e1 35 bb 29 0e 37 be
       -0.25943676 -0.07802109 -0.0027752914 -0.17876495
000360 4e bc b2 bd a9 9a 29 3e 97 a1 b9 3d 7a 74 15 be
       -0.087273225 0.16562904 0.09064024 -0.14595214
000370 70 d3 a2 bd 56 00 c2 3b 10 b1 98 be 26 b1 97 3e
       -0.07950485 0.00592045 -0.29822588 0.2962734
000380 a0 bd 63 bd b8 43 ba bd 69 fb b4 3d c6 b7 6c be
       -0.055600762 -0.090949476 0.08837015 -0.23116979
000390 83 30 be 3e f5 7d 3a 3e 13 42 58 be f7 30 6c 3e
       0.37146387 0.18212111 -0.21118955 0.23065554
0003a0 0d 31 16 be 9c 35 8d 3e 9e f5 0a 3e be b0 55 bd
       -0.14667149 0.27579963 0.13570258 -0.052170508
0003b0 f4 e9 53 3e 17 2f 7d bc 05 4b 49 3e 19 a0 0a be
       0.20694715 -0.015453122 0.19657524 -0.13537635
0003c0 7b b4 be 3e 28 50 32 be 7c e6 8b be 24 e9 2a bc
       0.3724707 -0.1741339 -0.27324283 -0.010431562
0003d0 22 07 e5 bc e4 f2 09 3e 4a b0 91 3d ed 57 3e 3e
       -0.027957503 0.13471562 0.071137026 0.18588229
0003e0 be 32 22 be a7 68 5d 3c 01 d6 ca bd 2d c0 0f 3e
       -0.15839669 0.013513721 -0.09904099 0.14038153
0003f0 f0 25 16 be 3a 3e 9a be c3 de 49 3d b2 33 81 be
       -0.1466291 -0.301256 0.049284708 -0.25234753

sequential/dense/BiasAdd/ReadVariableOp:0 f4 [100]
000000 e9 27 43 bd a6 16 ca bc 32 fa c4 3d ec 5b f4 bd
       -0.047645483 -0.024669003 0.096180335 -0.11931595
000010 e6 45 51 bd 5c a6 b2 bc 77 bf a5 be 17 78 6f be
       -0.05109205 -0.021807842 -0.3237264 -0.23385654
000020 d6 e6 96 3c 70 15 42 3d 31 3b aa bd 09 03 93 be
       0.018420618 0.047383726 -0.08312071 -0.28713253
000030 5a 87 89 3c 5d 1f cd bc 70 93 12 3c 40 b3 41 be
       0.016788173 -0.02503937 0.008946285 -0.18916035
000040 98 b2 26 bd 56 14 b5 bc 3c 61 cf bd 05 68 75 3c
       -0.040697664 -0.022104423 -0.10125968 0.0149784135
000050 ed a4 6f bd 16 82 9f 3d 49 49 98 3d 10 aa 31 be
       -0.058506895 0.07788484 0.07435853 -0.1735003
000060 79 ff 85 3c 11 af f0 bc 46 27 3f bc 08 e3 b7 3d
       0.01635717 -0.029380353 -0.011667078 0.0897885
000070 14 be ab bd e9 4b 78 bd 7e e0 09 bd 78 4a 78 3d
       -0.08385864 -0.06061927 -0.033661358 0.060617894
000080 d9 ac 81 bd 90 97 bc 3c 4e b8 a0 bd 70 07 7d bd
       -0.06331796 0.02302149 -0.07847653 -0.06177467
000090 b5 81 70 be 2c 62 18 bd 18 87 d3 38 ef 9f 1e 3d
       -0.2348698 -0.037203 0.00010086427 0.038726743
0000a0 df 85 88 be a6 c5 9c 3d ed df 83 3d 3d 08 53 bd
       -0.26664636 0.07654886 0.06439195 -0.05152153
0000b0 a2 ca 86 be 43 40 ca bc 72 b0 c7 be 34 12 45 be
       -0.26326472 -0.024688846 -0.39001805 -0.19245225
0000c0 db d0 79 be 4a 69 0c bc 95 b7 85 3d 0d ba 5a bd
       -0.24396078 -0.008570025 0.06529156 -0.053400088
0000d0 1f b2 07 3d d7 5e 0a 3e 00 37 22 3c 9e 65 c4 3d
       0.033128854 0.13512741 0.009900808 0.095896944
0000e0 7d 7c 20 bc 6f 27 4a ba 24 bf ac 3d 41 45 18 bd
       -0.009795305 -0.00077115645 0.08434895 -0.03717542
0000f0 0e 90 91 3b 25 81 75 bd a1 e4 8d 3c d1 8e 6a bd
       0.0044422215 -0.059937615 0.017320933 -0.057265107
000100 53 cd 20 be 50 01 0f be 12 47 6c b9 f3 06 82 bd
       -0.15703325 -0.13965344 -0.0002253319 -0.06348982
000110 d9 81 0e 3d 05 ee 3d bd d5 56 aa bd b8 73 89 be
       0.0347918 -0.04636957 -0.08317343 -0.268461
000120 90 ff 62 bd 2a 76 0f be e9 2b ac bc 72 31 68 be
       -0.055419505 -0.1400992 -0.021017032 -0.22675112
000130 cc 57 06 bd fb 91 53 bb d9 1a 07 3d 2a c6 1e bd
       -0.032798573 -0.0032283056 0.03298459 -0.038763203
000140 93 c5 38 be c5 2c 16 bd 99 53 8f be e3 cf e2 bd
       -0.18044119 -0.03666379 -0.27993467 -0.110748075
000150 bc 4d 5e bc 03 3e 5f 3d da 82 47 bc a2 1f d6 bd
       -0.013568338 0.0545025 -0.012177194 -0.10455252
000160 9f a9 28 bd d2 db 6b 3d e0 6e 05 bd b1 5d 78 be
       -0.04117739 0.057582684 -0.03257644 -0.2425449
000170 95 ea d0 bd 97 ba 9e 3d 5f ff 6d 3d 04 33 44 3c
       -0.10200993 0.07750433 0.05810487 0.011975054
000180 17 09 c7 3b 4b b8 40 bd 96 01 3c 3d e1 2f 53 be
       0.0060740816 -0.047050755 0.04589995 -0.20623733

ConstantFolding/sequential/normalization/truediv_recip:0 f4 [1, 12]
000000 5b 82 e0 3a 65 4c df 3a be cf df 3a 4a 2a df 3a
       0.0017128693 0.0017036317 0.0017075462 0.0017026153
000010 4b 17 df 3a c2 4c dd 3a 0e f1 da 3a 0d bb dc 3a
       0.0017020492 0.0016883838 0.001670392 0.0016840413
000020 8f bd dd 3a 35 23 df 3a 99 ae df 3a 76 d6 df 3a
       0.0016917455 0.0017024042 0.0017065584 0.0017077464
